MC_mlp_01.pth (torch_old, 53518 bytes, 7 tensors)

net.1.weight f4 [100, 8]
00000000: 0e97 88be 9344 80be 913d 77be 4646 07be
00000010: b2f0 81bd d9e2 c03d 0f24 933e e84e 993e
00000020: 6a73 063e a2f3 9d3e d633 2cbd b9d7 18bd
00000030: 13f8 183d 5415 efbd d731 debe 1eb0 03be
00000040: 4747 34be b5f8 9b3d 396b a03e 976f 80be
00000050: 1ca0 613e 6cbe 71bd 4a7d d2be 7061 f1bd
00000060: dd80 f2bd eab7 333e 1524 01be 0807 d2bd
00000070: 8bb8 c43e 01be 893e 0b44 723d be6d ecbe
00000080: 259c b83c 3906 4bbc 0662 093b 14ac a23e
00000090: d1c8 f93d 8139 95bf f6ca b33e 7167 59be
000000a0: 21a1 ab3d 9735 5cbd 7a50 153d 8c0d d63c
000000b0: ded6 97bf e413 613e 213a cf3e b8f1 be3d
000000c0: a8eb b43e 2fc6 51bf eb10 29bc d63a eebc
000000d0: f7fd b1bd ade5 0bbe 9a4b 82bd e7b0 ccbc
000000e0: f398 5f3d 6474 0e3e 4a61 4d3e 4d8f 43be
000000f0: 4723 b1be 14db 05bf f36f e3be c489 933e
00000100: 1fec 20be 67a0 0bbe 4044 afbd 82a5 5dbd
00000110: ddd5 813e bfdc 62be 68e2 773e 11ce fc3c
00000120: 4808 89bd b4b1 8fbe 265f 35be f17f a0be
00000130: c7db a1be 8fef 813e 94d8 90be fac6 543e
00000140: e92e 3b3e 7ce7 28be 4cbf 6e3e f35b 84be
00000150: 1ec5 8b3e fe3d cdbe 8ac5 673e 10d3 31be
00000160: 5904 3cbe 5992 a33e 105a 87be d0a6 403d
00000170: e784 9dbe 6202 b33d 5892 4dbe 3ee9 6dbe
00000180: e829 1fbe d165 97bd 718e 563e fc50 c1bd
00000190: 057c 753d 712a a1bd 375b 0cbe e5ea 6cbd
000001a0: 224d d3bb ba41 5c3d cc7c 8ebe 9c26 34bd
000001b0: 3d79 86bd 62b0 80be f511 28bd 3de5 b6bd
000001c0: f07d 94be a443 8dbe ddda 893e e899 ad3d
000001d0: e029 3f3e d3bb 80be 21e2 63bd 660e e03e
000001e0: d370 a9bd 6f69 dd3d 1a87 22bf 5a30 653d
000001f0: 0b1e 9fbd 56be 4b3e 7aad 01be f81b 1c3c
00000200: 8238 5ebe 72ee 1d3e beb1 0b3d a9da 4bbe
00000210: 5b37 86be e8bb 403e 76dd 03bf 98cc fb3d
00000220: e949 debe 7fe8 063f fd4f 60bb 56ee b33b
00000230: 1d6f aabd ec59 923e 8ff7 19bc 2072 4a3c
00000240: 1977 fe3e dde4 ec3e ca7c 1bbd 1c88 913d
00000250: bb12 f2bd 10f4 7f3d 7137 5fbe 8f60 75be
00000260: f02f 9dbe ab28 eb3c 4f7e 853d 86c0 303e
00000270: 8a0b 0dbe d2e3 ddbe 060a 14be 387a 8a3d
00000280: 6985 93bd 0e6f 65bd e22f 913d f033 9b3e
00000290: 23d7 69be dc08 f13e 6413 1abf bd86 733d
000002a0: bd43 28be df0a 91be 0844 51be 1459 9abe
000002b0: fc7b 2a3e 05d0 17bb 3e73 eb3d 6852 f33e
000002c0: 0910 27be d1b4 9ebc 7f86 f0bd a2e4 0fbf
000002d0: 1f16 08bd f9ad 3ebd 8f11 913d dc36 12bd
000002e0: d0a4 aa3c d9a3 07be 989f a73e bb8b a53b
000002f0: 73e9 043c d61c aa3e bc25 86be cad6 053e
00000300: e807 2a3d 6bf3 043d 2fbb 813e 7617 72be
00000310: f451 40bd 39fb c13e 4a30 5ebe 78e9 a13e
00000320: 8a17 87be 99e0 19bc 321c af3d a0e3 473e
00000330: 4e76 d23e 96af 243e 8ef3 febe 568e 4f3e
00000340: f224 8cbe 1516 fdbe 748b eaba 1cba 6e3e
00000350: 3508 2a3e 789a edbd 93e5 82be 6058 c1bd
00000360: 3a44 e53d 72ed 403e 024d 563e 705a bcbd
00000370: a3f4 8dbe 7a56 443c 9272 98be cf07 c83e
00000380: 5d6c 053e ef12 073e f321 d8bb 753e f0bc
00000390: 6bcc cdbe 43ca 77be 7159 c1be b7ab f8be
000003a0: 5e41 523e ce6c 873e c698 a03d 3a19 9abd
000003b0: 98be 0fbd eb58 3fbf 28f7 36be 5230 393b
000003c0: 4332 d43d 0d72 7c3e 180b 68bc f275 fcbb
000003d0: b601 943c 69f1 ce3e 4aa8 8dbe 8d0c c73c
000003e0: ee0a 5d3e bcbf f7bd ff23 f03d e0f7 5cbe
000003f0: 9d56 55be 1dea 2cbe c7e7 8f3d 84b8 5ebe
-0.26677746 -0.25052318 -0.2414458 -0.13210401 -0.06344737 0.09418268 0.28738448 0.29943013
0.13129964 0.3084994 -0.042041622 -0.037315104 0.037345957 -0.1167399 -0.433974 -0.12860152
-0.17605315 0.076157965 0.31331804 -0.25085136 0.22033733 -0.05901949 -0.41111213 -0.11786163
-0.11840985 0.17550626 -0.1261142 -0.10255247 0.38422045 0.26902774 0.059146922 -0.46177477
0.022535393 -0.01239162 0.0020962968 0.3177191 0.12196506 -1.1658174 0.35115784 -0.21230866
0.08380342 -0.053762045 0.0364537 0.026129507 -1.1862447 0.21980244 0.40474036 0.09323448
0.3533604 -0.8194303 -0.010318975 -0.02908079 -0.08691018 -0.13661833 -0.06362076 -0.024986697
0.054589223 0.13911587 0.20056644 -0.19097634 -0.34597227 -0.5228741 -0.44421348 0.28816044
-0.15715073 -0.13635407 -0.085579395 -0.05411292 0.25358477 -0.2215452 0.24207461 0.030859979
-0.06691033 -0.28065264 -0.17712077 -0.31347612 -0.3161299 0.2537808 -0.28290236 0.20779029
0.18279614 -0.16494554 0.23315161 -0.25851402 0.27298826 -0.4008636 0.22633949 -0.1736567
-0.18361033 0.31947592 -0.264359 0.047034085 -0.3076546 0.08740689 -0.20075357 -0.23233506
-0.1554333 -0.07392467 0.20952775 -0.09439275 0.059932727 -0.07869423 -0.1370667 -0.0578412
-0.006448404 0.05377362 -0.27829587 -0.043982133 -0.06566093 -0.2513457 -0.04103275 -0.089304425
-0.29002333 -0.27590668 0.26924792 0.08476621 0.18668318 -0.25143299 -0.055635575 0.43760985
-0.08273473 0.108111255 -0.634874 0.055954315 -0.07769402 0.19896826 -0.12663832 0.009528153
-0.21701244 0.15422991 0.034105055 -0.19907631 -0.26214108 0.1882168 -0.515098 0.122948825
-0.43415764 0.5269851 -0.0034227364 0.0054910583 -0.083219744 0.2858423 -0.0093974015 0.012356311
0.4970024 0.4626836 -0.037960805 0.07106039 -0.11819979 0.062488616 -0.21798493 -0.23962615
-0.30700636 0.028705915 0.06518232 0.17260942 -0.13773933 -0.43337876 -0.14456949 0.067615926
-0.0720318 -0.056014113 0.07089211 0.30313063 -0.22835974 0.47077072 -0.6018584 0.05945467
-0.1643209 -0.28328606 -0.20436108 -0.30146086 0.16648859 -0.002316476 0.1149659 0.47523808
-0.1631471 -0.01937333 -0.11744403 -0.5620824 -0.03322422 -0.046552632 0.07083427 -0.03569685
0.020830542 -0.13246097 0.32738948 0.0050520576 0.008112299 0.33225125 -0.26200664 0.13070217
0.041511446 0.032458704 0.25338122 -0.23641762 -0.046953157 0.3788698 -0.21698108 0.31623435
-0.26385146 -0.009391927 0.085503 0.19520426 0.41105884 0.16082606 -0.49795192 0.2026914
-0.27371937 -0.4943091 -0.0017894343 0.23313183 0.16604693 -0.11601728 -0.25565776 -0.09440684
0.11194654 0.18840578 0.20927814 -0.09196937 -0.27725706 0.011983508 -0.2977491 0.39068457
0.13029619 0.13190816 -0.006595844 -0.029326657 -0.4019502 -0.2419825 -0.3776355 -0.48568508
0.20532748 0.264502 0.07841639 -0.07524343 -0.035093874 -0.74745053 -0.1786772 0.002825756
0.10361149 0.24652882 -0.014162801 -0.00770449 0.018067222 0.40418556 -0.27667457 0.024297977
0.215862 -0.12097117 0.11725616 -0.21578932 -0.20833822 -0.16886182 0.0702663 -0.21750075

net.1.bias f4 [100]
00000000: bdd8 9cbc 4c94 febd 547e 49be c8c7 84bd
00000010: 73e2 813e d98b 663d 087f 693e c6e0 ca3d
00000020: 98b1 403e 74d6 81be d785 83bd e681 ac3e
00000030: b698 bebe 2e22 c7bd 72f0 c5bc b79e 76be
00000040: 40a3 1b3e e7cc 833c d4c3 ecbe ab2c 88bd
00000050: 41ab ac3d 0207 28be 8cac c73e 4245 c0be
00000060: 6ded f5be 23d7 cabe c25a bb3e a70a bcbe
00000070: f35e 0abe db51 f2bd d509 a9be cf3d 8cbe
00000080: 905c be3e 32d5 063e 5469 7a3e 5751 d23c
00000090: 56e7 a5be 3ff2 8ebe 5725 a33c 102f 3a3e
000000a0: e3f6 d33d 3d79 253e 423c 9c3e 3026 343c
000000b0: 8f5c acbd 49aa e73e e167 e03e 8582 c4be
000000c0: c29b 66be a242 cfbe a687 5f3d 8db6 afbd
000000d0: 5abd 82be 8006 293e 41b0 123e 808c 39be
000000e0: 1327 1ebd 4113 b5bd 46bb 15be 286c 95be
000000f0: 685f a6be d082 9cbe e799 5e3e 2af7 5cbd
00000100: bcf5 a53e 7a65 92be 0dcb a0be ebb6 c13c
00000110: 1711 86bd 7382 4ebe 6e6b 60be cba5 a2be
00000120: 4257 91bd e622 0d3f 74ab 97be 3097 f93c
00000130: 3a93 d0be ed58 15bd 288f 3dbe 8bfc 86bd
00000140: 9ae3 963e 9fba 8bbe 7af7 303f b5a3 66be
00000150: 800c 193d 1ed2 d2be c4f9 d0be b489 d53d
00000160: 2ca7 afbe 2544 eb3e 17d6 d13d e02d 1abd
00000170: 4aa5 033e 1645 a23e 8e67 d0ba d031 5d3e
00000180: 14d0 f1bd 0c91 c3bd 3cc1 f33e dc74 7d3d
-0.019146318 -0.12430629 -0.19677097 -0.06483418 0.2536808 0.056285713 0.22802365 0.099061534
0.18817747 -0.25358927 -0.06422012 0.33692855 -0.37225884 -0.09723316 -0.024162505 -0.24083982
0.15198994 0.016088916 -0.46243155 -0.06649145 0.084311016 -0.16408923 0.3899883 -0.3755284
-0.48032704 -0.3961726 0.3659268 -0.36726877 -0.13512783 -0.11832019 -0.33015314 -0.27390906
0.37179995 0.13167265 0.24454242 0.025673551 -0.32403058 -0.27919194 0.019915266 0.18182015
0.10349824 0.1615953 0.30514723 0.010995433 -0.08416092 0.45247105 0.43829253 -0.38380828
-0.22520354 -0.40480524 0.054572724 -0.08579741 -0.2553509 0.16506386 0.14325048 -0.18120003
-0.038611483 -0.08841563 -0.1462222 -0.2918408 -0.32494664 -0.30568552 0.21738397 -0.05394665
0.32414043 -0.28593045 -0.31404915 0.023646792 -0.065462284 -0.2016695 -0.21915981 -0.31767115
-0.07096721 0.55131376 -0.29622996 0.0304676 -0.40737325 -0.03646176 -0.18511641 -0.065911375
0.2947052 -0.27290818 0.6912762 -0.22523387 0.037365437 -0.41175932 -0.40815556 0.104266554
-0.3430723 0.45950428 0.102459125 -0.037641406 0.12856022 0.31693333 -0.0015900002 0.21601033
-0.11807266 -0.0954915 0.47608364 0.061879024

net.4.weight f4 [100, 100]
00000000: c8d1 b43d 2aee 7d3c d1c1 a0bd 901f 7dbe
00000010: 2d54 1ebe 4e08 4a3e 303f 5ebe b723 94bd
00000020: f9a0 5d3d db3c bf3d cfe6 2bbd 627e 0ebe
00000030: da35 37bd 7268 1fbd c7ae 933e 1a87 db3d
00000040: e96d f03c 272d f43d bc19 07bf 56fb c0bd
00000050: 4e09 773d ad95 85bd 7ddd 8ebe 68ad 2b3e
00000060: f06d cd3d 3a2e fb3d 94ed 35bd a68e 163d
00000070: 3fe2 06bc 2770 173c cf4c 953d eb03 b03d
00000080: 3015 debc 09f5 523d 5f12 4a3d 40b6 c1be
00000090: cb4d a5bd 65c9 8bbd 241d 25be c549 9e3e
000000a0: a92c 52bd 63f4 fd3d 0c3b 093e 46f1 ffbc
000000b0: 5c46 f5be 8878 b93d 1d15 3dbd b4b3 913d
000000c0: fdd2 9a3d 89ec fbbc a3b1 873b 4ee4 053e
000000d0: 2804 d03d 7c76 47bd 5900 0a3e fea3 813e
000000e0: cefd 97bc 6797 063e d265 793d bfe5 1a3c
000000f0: b73d 203e bb55 d83c c7f7 64be eea5 5c3c
00000100: d73b c2bd f0c6 66be 67f0 9cbd 1b94 683d
00000110: 9d67 03be 6c95 a23d 51e1 82be d04d 8f3d
00000120: 8325 dc3c c03b 74be 1abc 2dbc a229 1f3d
00000130: ba69 fd3b 6dd8 85bd 8236 25bb d722 63bd
00000140: d33e 073e f87b bbbe 8230 dcbe 25ac d8bd
00000150: aa25 efbd 7c03 5abd 46ba 4a3c 61c0 363a
00000160: c028 fdbc 0447 0f3c f1ec 8fbd eb17 c8bd
00000170: 22a3 de3d a19c 91bd 6364 fcbd 6302 4cbe
00000180: 9ac0 f7bd 84f6 823d 1476 ebbe 1b2f 223d
00000190: cf6e e5bd 7dc1 d0bd c88b 3e3e 5bd6 cf3d
000001a0: 880e d13d 19bc f83c 68ef ffbd 60e0 853d
000001b0: c6e0 b0be d6ee a7bd ebad 0e3d 3016 b1bb
000001c0: 45e1 5a3d 7e99 44bd d39b d93d cf9a 3bbd
000001d0: 1279 96bd bf76 c53d 9647 64be c2da ab3d
000001e0: 3606 463e 0966 f2bd 8c6b fbbc febc f33d
000001f0: 9509 1b3e c60b 3f3e 3842 87be a3a1 9e3c
00000200: 8c9d 883d bcfd 78bd 13fe c83d 103c 0b3e
00000210: 93d6 1abe a763 a1be 7e81 173c f955 06bf
00000220: a91b 80bb 6344 1abd 7c34 0abe 4f5b 063d
00000230: 5dfb a1bd 054a afbe fb79 a23d b7b1 d23a
00000240: 6057 2dbd 09fb 26bd 6ed7 493e b825 053e
00000250: b203 523d ee7f 7fbe 5f2b 3ebe cd9a a03e
00000260: 7df3 413e 92b6 c6bd b80b a9be 1027 a8be
00000270: 7d87 bb3c 2598 aa3e e7fb 04bd f20d 5abd
00000280: e65a 503d 8d45 8b3e 82f4 d2bc c722 68bd
00000290: a84d 323e 8d21 143e ab67 57bf 8dac e63c
000002a0: d77e 4e3e 523e f13c 1746 e33e 884c d33d
000002b0: 9af2 a73d 502d ac3d 46bc 0dbe 7322 113e
000002c0: 1747 4a3d bc5f 8cbe b008 c23d 4809 5abd
000002d0: 4209 4abe 6709 5abc 9773 db3d 2e97 7a3d
000002e0: a293 82bd 9d61 79be 92d3 793d 5564 413e
000002f0: 0ec6 9ebd e445 48be 5588 42bd b9ce 063d
00000300: 32bd 453e 379a 42be 8275 333e 8688 2dbe
00000310: ca11 713e 8e07 22be bc04 773e b721 683d
00000320: c55b 003d 6e10 27be c63d cbbd f19c b1be
00000330: 4482 07bf 03f9 7dbc 5e54 8b3d d48d 92bd
00000340: 3b17 213d 392c c53d 16c1 083d 67fc fdbd
00000350: 81a5 8abd fdb4 1bbd 974b 6d3e 8700 5dbc
00000360: cbed d33c 79fe ce3d 8f39 65be fc25 7fbb
00000370: 4556 d0bd af25 773e 5feb de3d b459 853d
00000380: 5c12 133e 5eac f93c cdb9 cbbd b38e 553e
00000390: 3962 91bc 338a 46be bf7e 213e 9c46 02bd
000003a0: 1311 21be 8dc9 a13d 4204 72bb 4959 9fbe
000003b0: eb5a 5a3c 2417 e33b a7b5 63bd 445c aa3d
000003c0: 57f6 d9bb 5e5f 4e3e 10a7 4e3e 38c8 3ebe
000003d0: 9cfd 25be 8755 113e 9ef4 833c b0f7 67bd
000003e0: 5a38 00bd 3a43 0ebe 1de1 b13d 3f21 4abd
000003f0: 467d f53c 6a5e acbe 0426 cc3d 91ef e33e
0.08829075 0.015498677 -0.078494675 -0.24719071 -0.15461798 0.1972973 -0.21703792 -0.072333746
0.054108594 0.09337779 -0.041968163 -0.13915399 -0.04472909 -0.038917966 0.28844282 0.10719128
0.029349284 0.119226746 -0.5277364 -0.094229385 0.060311608 -0.06522689 -0.27903357 0.16765368
0.100307345 0.122646764 -0.044416025 0.036757134 -0.008232652 0.009243048 0.07290041 0.08594497
-0.027109712 0.051503215 0.049333926 -0.37834358 -0.080714785 -0.06825522 -0.16124398 0.30915657
-0.051312122 0.12400129 0.13401431 -0.031242978 -0.47905242 0.09056193 -0.046162713 0.07114354
0.07559774 -0.030752437 0.004141049 0.13075373 0.10157043 -0.04869698 0.13476695 0.2532043
-0.01855364 0.13143693 0.06088812 0.00945419 0.15648542 0.026408067 -0.22360145 0.013467295
-0.0948407 -0.22536826 -0.076630406 0.05678187 -0.12832494 0.07938656 -0.25562528 0.069972634
0.026873356 -0.23850918 -0.010603929 0.038858064 0.007733551 -0.065354206 -0.002520949 -0.055453148
0.1320756 -0.36618018 -0.4300576 -0.10579709 -0.11677106 -0.05322598 0.012373513 0.0006971416
-0.03090322 0.008744959 -0.07027615 -0.09770187 0.10870959 -0.07109953 -0.12323835 -0.19922785
-0.12097283 0.063946754 -0.45988524 0.039595705 -0.11202776 -0.10193155 0.1860801 0.10148307
0.1020785 0.03036313 -0.12496835 0.06536937 -0.3454649 -0.08199851 0.03483383 -0.0054042563
0.05343749 -0.047997944 0.10625424 -0.045801934 -0.07347311 0.0964179 -0.22292933 0.08391334
0.19338307 -0.11835868 -0.03069093 0.11901282 0.15140374 0.18656835 -0.26417708 0.019364184
0.06670675 -0.060788855 0.09814086 0.13597131 -0.15120916 -0.3152134 0.009247182 -0.52474934
-0.0039095473 -0.037662875 -0.13496584 0.032801922 -0.07909272 -0.3423616 0.07933422 0.0016074692
-0.042319655 -0.04076675 0.19711086 0.1300267 0.051273055 -0.24951145 -0.18571232 0.31368104
0.1894054 -0.09702791 -0.33016753 -0.32842302 0.022891754 0.33319202 -0.032466795 -0.053235956
0.050867938 0.272015 -0.025751356 -0.05667379 0.17412436 0.14465924 -0.8414256 0.02815845
0.20165573 0.029448662 0.44389412 0.103173316 0.082005695 0.0840708 -0.13841352 0.14173298
0.049384203 -0.2741679 0.09474313 -0.053231508 -0.19730094 -0.013307906 0.107154064 0.061179332
-0.06375815 -0.24353643 0.060992785 0.1888593 -0.0775262 -0.19557911 -0.047493298 0.03291199
0.19310454 -0.19004141 0.17525294 -0.16946611 0.23541942 -0.15823194 0.241229 0.056672778
0.03133752 -0.16314861 -0.09923892 -0.3469005 -0.52933145 -0.015501264 0.06803201 -0.07155958
0.039328795 0.096275754 0.033387266 -0.124016576 -0.067698486 -0.0380144 0.23173366 -0.013488895
0.025870224 0.101071306 -0.22385238 -0.0038932553 -0.101727046 0.24135469 0.10884737 0.0651125
0.14362472 0.030477699 -0.09947548 0.20855217 -0.017747032 -0.19388656 0.15771006 -0.03180562
-0.1572917 0.07899771 -0.0036928807 -0.31122807 0.013327341 0.006930249 -0.05559316 0.083183795
-0.0066516805 0.20153567 0.20180917 -0.18631065 -0.16210026 0.14192782 0.016107854 -0.056632698
-0.03130374 -0.13892832 0.08685515 -0.049348112 0.029966962 -0.33665782 0.099681884 0.44518712

net.4.bias f4 [100]
00000000: 0d5c 9e3d 9dc3 d0bd 03ec f4bc 597c e5bd
00000010: a5ae 06bd bb7f 63bd 3571 093d 5bc6 383e
00000020: 74f1 01be 8b41 d03c 54ef 243e 60a3 9f3d
00000030: a0b8 b4bd 43a8 f3bd 4fcc 1dbe 5788 043e
00000040: 7dcc f6bd 4aa9 313d a226 8bbd 21e0 a43b
00000050: b0ae 9fbe 8a8a b43b 12e3 ab3d b739 df3d
00000060: efc3 6b3d f1e0 fd3d da93 ab3d ce02 62bd
00000070: cd1e 44bd fc8a 04be faaa 0f3d 005d 313d
00000080: 9520 b93c 7a65 13be 4b00 9bbd 9307 473e
00000090: ac5a a2bd db77 c73d 5713 093e 9b84 dcbc
000000a0: 2dda d0bd d77d 353e f7c0 28bd 88ba 9fbd
000000b0: 942a 663d cbc2 433d fe4b 8cbd 1d50 6bbd
000000c0: 6609 cf3c a643 b83c 5595 273e c608 25bd
000000d0: 6da7 253e c1c9 22be e772 0abe 5ce2 bf3b
000000e0: ccd3 05be 3844 f0b7 3cee c73d 06ba 543b
000000f0: 0703 5a3d 8ce2 043d 0df1 b5bd 9e65 a93d
00000100: a519 c1bc b3f0 ce3c 6014 f33d cf8f 1abd
00000110: c6d2 03ba 6e7c 95bb d163 c3bd 1419 01bc
00000120: 7f4c b33d 5cb7 203e 6301 bf3c 4348 1bbe
00000130: 29df 933d d1e6 4bbd caf8 9a3c cb71 edbc
00000140: 062b c9bd 5eb6 2fbd 63d2 5c3d ae53 c0bd
00000150: e59a d7bd 5063 c7bd bc17 e4bd eaca 5ebc
00000160: 42fc c1bd 130d 313e f64b 803d fbfa b5bd
00000170: edfa 123c 3300 ac3b 57ec 67bd 24ef 78bd
00000180: 0eed b23d 7043 583d bce5 21be 2a1c a4bd
0.07732401 -0.1019356 -0.029897695 -0.11205358 -0.032881398 -0.055541735 0.03355523 0.18044417
-0.12689763 0.025421878 0.16106921 0.07794833 -0.08824277 -0.11897328 -0.15409969 0.12942635
-0.12050722 0.043374337 -0.06794478 0.005031601 -0.31187963 0.005509679 0.083929196 0.1089968
0.057559904 0.1239642 0.0837781 -0.055178456 -0.047880936 -0.12943643 0.035075165 0.043301582
0.022598544 -0.14394179 -0.07568415 0.19436483 -0.079274505 0.097396575 0.13386284 -0.0269187
-0.10197864 0.17723785 -0.04119965 -0.0779925 0.05619295 0.04779319 -0.06850432 -0.05744945
0.025273036 0.022493195 0.1636556 -0.04029157 0.16177149 -0.15897276 -0.13520394 0.0058558416
-0.13069075 -2.8641996e-05 0.097622365 0.0032459511 0.053225543 0.032442614 -0.088838674 0.08271335
-0.023571799 0.025261259 0.118691206 -0.037734803 -0.0005028661 -0.0045619523 -0.09540523 -0.007879514
0.08754825 0.15694946 0.02331609 -0.15164284 0.07220299 -0.04978067 0.01891746 -0.028984925
-0.09822659 -0.04289853 0.053911578 -0.09390961 -0.10527591 -0.09735739 -0.111373395 -0.013598183
-0.094719425 0.17290144 0.062644884 -0.08885761 0.008970958 0.005249047 -0.056621876 -0.060774937
0.08736621 0.05279869 -0.15810293 -0.08013184

net.7.weight f4 [20, 100]
00000000: 0c95 aebe f543 74be 795c f6be 6f74 57bd
00000010: cdb0 14be 9074 76bc 3e0e c1bd a560 44bf
00000020: 50a2 c1bd bf09 14be 1110 32bf 73ad 83be
00000030: b796 48bd f499 20bc 2cd3 223d c47d dcbe
00000040: 9198 6bbd 15df 72be 6202 f63c 8924 9abe
00000050: b097 a83d c826 a6be fa5c d8be 3c05 71bf
00000060: a1aa 243d 8fbf cdbe c9ef b5be fc48 62bc
00000070: beac 593d 44b7 03be 9c5f 03be 4eb1 053e
00000080: dfb8 e5bd 74f7 943c f38e c23d c644 48bf
00000090: 2450 b8bc db37 c9be e8ec 3cbf e44f 37bb
000000a0: dd18 78bd 92ec 60bf c7a3 c4bc d277 aa3c
000000b0: 73f0 f9be 9755 73be 9c26 aa3d 4e27 d4be
000000c0: 80d2 90be ee96 9a3c 0f18 3cbf 1a62 9bbd
000000d0: f56f 30bf 837a babc cb19 5bbd 0620 9dbe
000000e0: e072 2e3d 0fe6 85bd 3573 eabe 20fb 52bc
000000f0: cbe9 2abd a907 58be 4b0f 433d 7051 323d
00000100: 2b28 8abd f2c7 9cbe c350 3cbf 0e5b 223c
00000110: e97a 98bd 5ed4 a43c f632 2abd cdf5 a2bd
00000120: d9fa 9dbe c241 c8be 8034 2ebe ac1f b13d
00000130: 6ba7 2cbf 940e 33be 2413 e13c 5d05 f7bd
00000140: 173c 32bd b699 0c3e 56f5 2cbe ebd7 00bd
00000150: 9b8a a1bc 3c09 dbbc 0943 50bd 95f3 2fbd
00000160: db40 dabc 263f 32bf 714d a0be 6012 9b3b
00000170: d802 d43c 2502 3ebe 049c 383d b267 503d
00000180: ceab a7be 007a e6be af5c 83bd c738 a2bd
00000190: 9038 083d bc37 023e 3492 173d 2c95 5ebc
000001a0: 5389 1c3e b19b d8bc b982 393e 013a 6f3d
000001b0: 61b7 ccbd 4ca0 123c ea76 b43d 117a 723f
000001c0: 7fb1 bebc 1be8 b0bc c470 24be c1f7 253d
000001d0: 0bce 10bf a462 653e c868 3a3e b21f 023e
000001e0: d24c d2be 90d9 dc3d b829 013f 0ff8 e03e
000001f0: 3335 b43d bf34 0a3e 0c64 6a3e 4627 fabb
00000200: b44e 1b3c 36bf 73bd 94f8 023e ea7e 813d
00000210: f164 223e a797 113d 0478 57bd ffc3 d13d
00000220: 256c 1e3c c5a9 8d3d a874 a63d 4841 ed3d
00000230: 793a e0bd 0c1f e83d 023e 4cbd ef99 083d
00000240: 9518 a53e 124b a73d c34c 1f3e d11d 943d
00000250: 8922 873d ba77 90bf 8c1b 463e b6ee 4bbc
00000260: 786e 9f3d 7efb 29bf 452f 123d 1ede b33d
00000270: 8ab0 4cbd 06be 563e cba2 0b3d 2272 9ebe
00000280: b565 efbe 3545 36bd 2d95 25bc 817a 6a3d
00000290: 9229 f33d d577 b03d 880b ec3d eb0f 803e
000002a0: ea02 da3d 5e0b e5bc 998e 9e3d f9b5 1b3e
000002b0: bfa1 913d 752c 063b 8efc 0b3d 7387 203d
000002c0: b671 063f cc3b ca3d 3657 ce3c 6cce 2e3d
000002d0: bef5 9339 2ed8 433c bd88 4e3d 6246 d33c
000002e0: 9981 2a3d 609d 0abf 74f2 3d3d 4231 b63b
000002f0: 2c7d 8ebe 2858 5c3e 3cff a73c 072f 073d
00000300: 3160 733d 3634 1d3e b975 ba3d f9df 543d
00000310: 7336 dc3c 30d2 013e d4ea 883d a717 433d
00000320: ecc7 42be 2085 acbd 3e9a 99bd 877f 26bc
00000330: 148d 933d f99c ad3d 204f d1bd 389d 7abe
00000340: 8b80 243d e277 94be 80c8 f9be ce6a 38bf
00000350: 1ae0 46bd 19e7 bf3d d039 37bd c064 19be
00000360: c0bf c3bc 99dd 203c 6165 65bd bd69 3dbe
00000370: cd3b 5fbd c321 64bd 56da 43be b03b 91be
00000380: a413 8cbd 556c a6be a0e9 91be 1bbb b7bd
00000390: 4969 abbd f699 b6bc 2ed0 31bd 2b6a 56bd
000003a0: bc4d ccbe 1b9c a33d cc24 d23c d457 47be
000003b0: 0d20 83bd 2033 65be 9e36 07bf 8372 86bd
000003c0: d9be bcbc 42ee 9fbe 2f84 b33d dccf 8dbd
000003d0: 1f4b a8be 90b4 d73d 1c25 53bd 6623 7fbe
000003e0: 514b 13be 30f1 3c3d 8bf0 a0be 4716 703d
000003f0: 1c70 9dbe ab1a 0c3c 1064 96bb 369c 95be
-0.3409809 -0.23854049 -0.48117426 -0.052601274 -0.14520569 -0.015042439 -0.094265446 -0.7670997
-0.09454787 -0.14456843 -0.69555765 -0.2571827 -0.048971858 -0.00980233 0.03975217 -0.43064702
-0.057518546 -0.23717912 0.030030433 -0.30106 0.08232057 -0.32451463 -0.42258435 -0.9414861
0.040201787 -0.4018521 -0.35534504 -0.013811346 0.053143255 -0.12862879 -0.12829441 0.13055918
-0.11216902 0.018184401 0.09499922 -0.7822994 -0.022499152 -0.39300427 -0.7379899 -0.0027971203
-0.060570586 -0.8786098 -0.024003876 0.020809088 -0.4881626 -0.23763119 0.083081454 -0.41436237
-0.282856 0.018870797 -0.7347421 -0.07587071 -0.6892083 -0.022763496 -0.053491395 -0.30688494
0.042590022 -0.06538021 -0.4579102 -0.012877256 -0.04172687 -0.21096672 0.047622006 0.043534696
-0.06745943 -0.30621296 -0.7356073 0.009909404 -0.07445318 0.020120796 -0.041552506 -0.07957039
-0.30855444 -0.3911267 -0.17012215 0.08648619 -0.6744296 -0.1748603 0.027474947 -0.1206157
-0.043514337 0.13730511 -0.16890463 -0.031455915 -0.019719413 -0.026737802 -0.05084518 -0.042956907
-0.026642254 -0.69627607 -0.31309083 0.004732415 0.025880262 -0.18555506 0.045070663 0.05088014
-0.32748264 -0.45014954 -0.06414162 -0.07920986 0.033257067 0.12716573 0.037004665 -0.01358537
0.1528676 -0.026441427 0.18116273 0.058404926 -0.09995914 0.008949351 0.088117436 0.9471751
-0.023277996 -0.021595052 -0.16058642 0.04051948 -0.56564397 0.2240091 0.18204033 0.12707403
-0.41074234 0.10783684 0.5045428 0.43939254 0.087992094 0.13496684 0.22889727 -0.0076340763
0.0094792135 -0.059508525 0.12790138 0.06323035 0.15858819 0.035545018 -0.05260469 0.102424614
0.009669338 0.069171466 0.08127719 0.11584717 -0.10948653 0.11334047 -0.049863823 0.033349928
0.32245317 0.081686154 0.15556626 0.072322495 0.06598384 -1.1286538 0.19346446 -0.01244705
0.07784742 -0.6639937 0.03568961 0.087826 -0.04997305 0.20970926 0.0340908 -0.3094645
-0.46757284 -0.044499595 -0.010106367 0.057245735 0.11873163 0.08616606 0.11525637 0.25012144
0.10645087 -0.027959522 0.07742042 0.15206136 0.07110929 0.0020473276 0.0341764 0.039191674
0.5251726 0.098746866 0.02518807 0.042677328 0.00028221117 0.011953397 0.050423373 0.025790397
0.0416275 -0.54146385 0.0463738 0.005560071 -0.27829874 0.21518004 0.020507447 0.033003833
0.059417907 0.15351948 0.09104485 0.05197141 0.026881432 0.12677836 0.06685415 0.04762998
-0.19021577 -0.08423829 -0.075001225 -0.010162241 0.07204643 0.08477206 -0.1022017 -0.24474037
0.04016165 -0.28997713 -0.48785782 -0.7203797 -0.048553564 0.0937025 -0.04473287 -0.1497984
-0.023895144 0.009818458 -0.056004886 -0.18497367 -0.05450039 -0.05569626 -0.19126257 -0.2836585
-0.06839684 -0.32504526 -0.28498554 -0.089712344 -0.08369691 -0.022290211 -0.043411426 -0.052347343
-0.39903057 0.07988759 0.025652312 -0.19467098 -0.064025976 -0.22382784 -0.52817714 -0.0656481
-0.023040222 -0.31236464 0.087654464 -0.06924412 -0.32869813 0.105324864 -0.051549062 -0.24915847
-0.143842 0.04612845 -0.3143352 0.058614995 -0.30749595 0.00855128 -0.004589565 -0.29220742

net.7.bias f4 [20]
00000000: 4758 8d3d 9a20 84bc bdf5 dd3d 30e4 033c
00000010: 4dd7 043e d930 083e 9060 f73d 8644 64ba
00000020: 7048 a9bd 00f5 cbbd a770 0f3e 3117 f93d
00000030: 8404 13be 2da1 193e 7474 ee3a 943b f2bd
00000040: a34e ba3a 7a6c babb 84ed e03b 5a7d 98bb
0.06901603 -0.016128827 0.108378865 0.00805001 0.12972756 0.13299884 0.12078965 -0.00087077206
-0.082657695 -0.099588394 0.14007817 0.121626265 -0.14357191 0.1500289 0.0018192665 -0.1182777
0.0014214109 -0.005689201 0.0068642516 -0.004653615

net.10.weight f4 [1, 20]
00000000: 171a 23bf 09a6 e13d 7d2e 7ebe 2b9e d73d
00000010: 9430 65be ed7c 10be a173 33be 25ae 0c3e
00000020: 75ac e1bd 9600 433e 298b 19be 93cb 18be
00000030: 8037 e7bd 0ead eebd 67d0 e53d 74a6 06be
00000040: 09d0 dc3d 9989 da3d 9906 e33d 96fc e93d
-0.63711685 0.11017997 -0.24822421 0.10528215 -0.22381812 -0.14110155 -0.17524578 0.13738306
-0.11019222 0.19043192 -0.14994492 -0.14921407 -0.11289883 -0.11654101 0.1122139 -0.13149434
0.10781867 0.10670776 0.11085243 0.1142513
