VD_mlp_01.pth (torch_old, 18358 bytes, 11 tensors)

log_alpha.0 f4 [8]
0	0xc0b195f6	-5.549556
1	0xc0ac9c56	-5.394084
2	0xc05b3dd3	-3.4256485
3	0xbeffca42	-0.49958998
4	0xc071dd17	-3.7791193
5	0xbeffe46b	-0.49978957
6	0xbeffc746	-0.4995672
7	0xc092d993	-4.5890594

log_alpha.1 f4 [50]
0	0xbeffd0e9	-0.49964073
1	0xbeff7cef	-0.49900004
2	0xbeff7cef	-0.49900004
3	0xbeffb31b	-0.49941334
4	0xbeffb018	-0.49939036
5	0xbeffbf56	-0.49950665
6	0xbeff7d1c	-0.49900138
7	0xbeffac14	-0.49935973
8	0xbf011e8c	-0.50437236
9	0xbeff7cef	-0.49900004
10	0xbeff7cf0	-0.49900007
11	0xbeffb67f	-0.4994392
12	0xbeffb2fc	-0.49941242
13	0xbeff7cef	-0.49900004
14	0xbeff7cef	-0.49900004
15	0xbeffacc9	-0.49936512
16	0xbf0006d6	-0.5001043
17	0xbeff7cef	-0.49900004
18	0xbf00d5f0	-0.5032644
19	0xbeffc1e1	-0.49952605
20	0xbeffc62e	-0.49955887
21	0xbeff7cef	-0.49900004
22	0xbeffa9fa	-0.4993437
23	0xbeff7cef	-0.49900004
24	0xbeffab6c	-0.49935472
25	0xbff6e76f	-1.9289378
26	0xbeff8efd	-0.4991378
27	0xbf97c430	-1.1856747
28	0xbf004dba	-0.501186
29	0xbeffdb4a	-0.49971992
30	0xbeff7cef	-0.49900004
31	0xbeff883a	-0.4990862
32	0xbeffc9ca	-0.4995864
33	0xbeffe30f	-0.4997792
34	0xbf000844	-0.5001261
35	0xbeffb821	-0.49945167
36	0xbeffe3ea	-0.49978572
37	0xbeffaa9e	-0.49934858
38	0xbeffe776	-0.49981278
39	0xbeffb26f	-0.49940822
40	0xbeffb372	-0.49941593
41	0xbeff7cef	-0.49900004
42	0xbeffb024	-0.49939072
43	0xbeff98cf	-0.4992127
44	0xbeffda83	-0.499714
45	0xbeff7cf0	-0.49900007
46	0xbeffb1e5	-0.4994041
47	0xbf000371	-0.5000525
48	0xbeff7cf0	-0.49900007
49	0xbeff7cf0	-0.49900007

log_alpha.2 f4 [50]
0	0xbf009a3b	-0.50235337
1	0xbf001f49	-0.5004774
2	0xbeff7cf3	-0.49900016
3	0xbeffd85a	-0.4996975
4	0xbeffb552	-0.49943024
5	0xbf0020c0	-0.5004997
6	0xbeffd995	-0.4997069
7	0xbeffe685	-0.4998056
8	0xbeffce0f	-0.49961898
9	0xbf014379	-0.5049358
10	0xbeffe96f	-0.49982783
11	0xbeffecca	-0.49985343
12	0xbeffafe4	-0.4993888
13	0xbeffe369	-0.49978188
14	0xbeff7cf3	-0.49900016
15	0xbf0020e6	-0.500502
16	0xbeff7cf3	-0.49900016
17	0xbeffef70	-0.49987364
18	0xbeffec3b	-0.49984917
19	0xbeffc5b0	-0.4995551
20	0xbeffb798	-0.49944758
21	0xbeffc7fc	-0.49957263
22	0xbeffe24d	-0.4997734
23	0xbeffe8cf	-0.49982306
24	0xbeffbfb5	-0.49950948
25	0xbf000c9a	-0.5001923
26	0xbeff7cf4	-0.4990002
27	0xbf021660	-0.5081539
28	0xbefff71b	-0.49993214
29	0xbeffd54c	-0.4996742
30	0xbeffe425	-0.49978748
31	0xbefff74b	-0.49993357
32	0xbeffc6f3	-0.49956474
33	0xbeffec4e	-0.49984974
34	0xbeff7cf3	-0.49900016
35	0xbeffd447	-0.49966642
36	0xbf00b9a8	-0.5028329
37	0xbeffefbb	-0.49987587
38	0xbeffac97	-0.49936363
39	0xbf00009c	-0.5000093
40	0xbefff1a8	-0.49989057
41	0xbefff857	-0.49994156
42	0xbf0049c7	-0.50112575
43	0xbeffde5d	-0.49974337
44	0xbeffe101	-0.49976352
45	0xbeffd7a8	-0.4996922
46	0xbeffe07c	-0.49975955
47	0xbefff960	-0.49994946
48	0xbeffdb7f	-0.4997215
49	0xbf03e398	-0.51519156

log_alpha.3 f4 [20]
0	0xbf00d427	-0.5032372
1	0xbeff7d5e	-0.49900335
2	0xbeffbcd8	-0.49948764
3	0xbeffd6a2	-0.4996844
4	0xc008137e	-2.1261897
5	0xc045cfc1	-3.0908053
6	0xbeff7d5e	-0.49900335
7	0xbeffe7fd	-0.4998168
8	0xbf03bb52	-0.51457703
9	0xbeffce10	-0.499619
10	0xc02968f4	-2.6470308
11	0xbeffe277	-0.49977466
12	0xc0415ec7	-3.0214097
13	0xbeffe6b9	-0.49980715
14	0xc07583b2	-3.836163
15	0xc0994789	-4.7899823
16	0xc088548d	-4.260321
17	0xbf6a5fac	-0.91552234
18	0xc07e7110	-3.9756508
19	0xc059464f	-3.3949163

layers.0.weight f4 [50, 8]
0	0xbf236de8	-0.6383958
1	0xbf474645	-0.778416
2	0x3f08b335	0.5339845
3	0xbc02140f	-0.007939353
4	0x3f3c32f4	0.7351525
5	0xbc90d02c	-0.01767739
6	0xbc64b392	-0.0139588285
7	0x3f4aadf7	0.791717
8	0xbe9eb862	-0.31000048
9	0xbefafb65	-0.49019924
10	0x3e1ae3f2	0.15126017
11	0x3da432c2	0.08017494
12	0xbea8a49d	-0.3293809
13	0x3bf43c9a	0.0074535133
14	0x3e83b6cf	0.2572541
15	0xbe9fbb6b	-0.31197676
16	0xbddcefc6	-0.10787921
17	0xbeba0daa	-0.3633855
18	0xbe156cca	-0.14592281
19	0x3dc58496	0.096444294
20	0xbe76989d	-0.24081655
21	0x3d4357d7	0.047691192
22	0xbe9fa17b	-0.31177887
23	0xbc9f698a	-0.019459505
24	0xbee6899d	-0.45026866
25	0xbed33778	-0.41253257
26	0x3da24951	0.0792414
27	0xbb52163a	-0.0032056705
28	0x3dc6b21c	0.097019404
29	0xbd27a18a	-0.04092554
30	0xbba11a8b	-0.0049164942
31	0x3fb18031	1.3867246
32	0x3f417db0	0.7558241
33	0xbf980189	-1.1875468
34	0xbe76531b	-0.2405514
35	0xbc54da37	-0.01299148
36	0x3f4777c8	0.77917147
37	0xbba50f9a	-0.0050372602
38	0xbc45408f	-0.012039318
39	0xbed2f9db	-0.4120625
40	0x3e717d13	0.23582868
41	0x3d9b1ab9	0.07573456
42	0xbeb83842	-0.3598042
43	0x3bc922c4	0.0061381776
44	0xbf5067f2	-0.8140861
45	0x3ca4b59a	0.020106126
46	0xbd2f9ae1	-0.042872313
47	0x3f9f37c1	1.243889
48	0xbdf67add	-0.12035153
49	0x3c66d67d	0.014089224
50	0xbcea9c0b	-0.02863886
51	0xbd6689ed	-0.05628388
52	0xbcb8ce54	-0.022559322
53	0x3e9bff46	0.30468196
54	0xbe90068a	-0.2812999
55	0xbed7534e	-0.42055744
56	0xbf059f57	-0.5219626
57	0xbf2257b3	-0.6341507
58	0x3f0ecd5f	0.5578212
59	0xbc795ea4	-0.015220318
60	0x3f37d8b3	0.7181503
61	0xbccf45a0	-0.025301754
62	0xbc674dc2	-0.01411766
63	0x3f5121e0	0.81692314
64	0xbf2139e4	-0.6297896
65	0xbef99eb1	-0.48753884
66	0x3e021698	0.12703931
67	0x3ca7fe1d	0.020506913
68	0x3f48d7c2	0.7845422
69	0x3b23b500	0.002497971
70	0x3c8535b5	0.016260961
71	0x3f942fab	1.1577047
72	0xbe4d44d2	-0.20045784
73	0x3e031d29	0.12804092
74	0x3e70583e	0.23471162
75	0x3e074d6c	0.13213128
76	0xbe9a3a7c	-0.30122745
77	0x3d3590f1	0.04432768
78	0x3de210cf	0.11038362
79	0xbea971f0	-0.3309474
80	0x3cf9e86b	0.030506333
81	0xbedcabe1	-0.43099883
82	0x3dca5fc4	0.09881547
83	0x3d9e685b	0.07734748
84	0xbe9f8850	-0.31158686
85	0xbdb1d740	-0.08683634
86	0x3cc2c2ae	0.023774471
87	0xbdd6b37c	-0.10483453
88	0x3f01dcf7	0.5072779
89	0x3ef38d8f	0.47568938
90	0xbf37c23b	-0.7178075
91	0x3cff0d47	0.03113426
92	0x3f3943b1	0.72368914
93	0xbcabc47f	-0.02096772
94	0xb8b36588	-8.554297e-05
95	0xbf5615ad	-0.83626825
96	0x3f3a690c	0.7281654
97	0x3edc63e0	0.4304495
98	0x3e7ffb7e	0.2499828
99	0xbd0bf4ce	-0.03416901
100	0xbf3e2c7d	-0.74286634
101	0xbc198643	-0.009370389
102	0x3c79c690	0.015245095
103	0xbfa853c4	-1.3150563
104	0xbe73e89d	-0.23819204
105	0x3e2bf889	0.16794027
106	0x3e16fef7	0.14745699
107	0x3cb8240c	0.022478126
108	0xbecdd50a	-0.40201598
109	0xbe804fcf	-0.2506089
110	0xbdd5517a	-0.10415931
111	0xbe06a333	-0.13148193
112	0xbe0fcc71	-0.14042832
113	0xbd96bc64	-0.073601514
114	0xbe14d8e9	-0.1453587
115	0x3e449702	0.1919823
116	0xbea55a7d	-0.322956
117	0xbdf063f2	-0.11737813
118	0xbc3c6000	-0.011497498
119	0xbe8ff839	-0.28119066
120	0xbedb16d5	-0.42790857
121	0xbf042802	-0.5162355
122	0x3dbc83b3	0.09204807
123	0xbbd35242	-0.006449015
124	0xbb53092b	-0.003220151
125	0xbc847d76	-0.016173106
126	0x3b24950a	0.0025113248
127	0x3fb3861d	1.4025303
128	0xbfaa5176	-1.330611
129	0x3f7f2fd5	0.9968236
130	0x3e46ad93	0.19402151
131	0x3c7ea465	0.015542124
132	0x3f07cb25	0.5304435
133	0x3c9f3c41	0.019437911
134	0xbb07223f	-0.0020619777
135	0xbf0990b0	-0.537364
136	0xbe692ee1	-0.22771789
137	0x3dff9581	0.124796875
138	0xbe802294	-0.2502638
139	0xbe4d4ae6	-0.20048103
140	0xbe9fab62	-0.31185442
141	0x3e310f05	0.17290886
142	0x3e18558f	0.14876388
143	0xbe6b2ade	-0.22965571
144	0xbfa7b2ac	-1.3101401
145	0x3f2724ab	0.65290326
146	0xbdd2cee4	-0.102933675
147	0xbb6d3fd5	-0.0036201377
148	0xbe8959c9	-0.26826313
149	0xbbc0f89b	-0.005889011
150	0x3cd3b59a	0.02584343
151	0x3e8e549a	0.2779892
152	0xbf28719d	-0.6579836
153	0xbf388971	-0.7208472
154	0x3ef21f86	0.47289675
155	0xbc018436	-0.007905057
156	0x3f447491	0.76740366
157	0xbc95d396	-0.018289369
158	0x3c99de21	0.018782677
159	0x3f4d0934	0.8009217
160	0xbed1de96	-0.40990132
161	0xbe97b7a6	-0.296323
162	0x3dce253a	0.10065694
163	0x3c954c04	0.018224724
164	0xbcbc7723	-0.023006028
165	0x3bec554c	0.0072123166
166	0xbb187d60	-0.0023268089
167	0x3fb10c7f	1.3831939
168	0xbe57ec51	-0.21086241
169	0x3cfbf564	0.03075666
170	0xbd9e9562	-0.07743336
171	0xbec1f01f	-0.3787851
172	0xbe78ff3f	-0.24316119
173	0xbeb33573	-0.35001716
174	0xbe2513d2	-0.16120842
175	0xbf0bac3d	-0.5455969
176	0xbf1016aa	-0.5628458
177	0xbf2305eb	-0.63680905
178	0x3f026be1	0.5094586
179	0xbcb912d0	-0.022591978
180	0x3ef19962	0.47187334
181	0xbc828fa1	-0.015937628
182	0xb7a052b8	-1.9112005e-05
183	0x3f832a15	1.0247217
184	0xbe25928c	-0.16169184
185	0xbe2373c4	-0.1596213
186	0xbef5aaf2	-0.47981983
187	0x3e1d38d1	0.15353705
188	0xbe81544d	-0.2525963
189	0xbe8b57a2	-0.27215296
190	0x3dd6c37f	0.10486507
191	0xbd527127	-0.05137744
192	0xbf48a9fb	-0.7838437
193	0xbf51fdcc	-0.8202789
194	0x3ec4d477	0.38443348
195	0xbcb93073	-0.02260611
196	0x3f4d2c00	0.80145264
197	0xbb2a6a46	-0.0026003285
198	0xbbe60548	-0.0070196725
199	0x3f4c8c06	0.7990116
200	0x3f3ef121	0.74586684
201	0x3f3db304	0.7410128
202	0xbbe6ee3f	-0.007047444
203	0x3aa78fbd	0.0012783926
204	0xbdda8d7e	-0.10671519
205	0x3a769cc0	0.0009407513
206	0xbb036b1b	-0.0020052854
207	0xbcd7e082	-0.02635217
208	0x3e808cd6	0.2510745
209	0xbf31bb49	-0.694264
210	0xbec913f8	-0.39273047
211	0xbd84c962	-0.06483723
212	0x3f42fa87	0.76163524
213	0x3e353883	0.17697339
214	0x3c5af0b1	0.013363049
215	0xbede3275	-0.4339787
216	0xbf73dde6	-0.95260465
217	0x3fa96f87	1.323716
218	0xbbc1bf31	-0.0059126844
219	0xbac15bb1	-0.0014752058
220	0x3bc6e217	0.0060694325
221	0xbc2ccfa5	-0.010547553
222	0x3c204079	0.0097809965
223	0xbd185beb	-0.037197035
224	0x3f8fe6dc	1.1242328
225	0xbf41ccea	-0.757033
226	0x3e62ae0b	0.22136705
227	0xbb1ff33a	-0.002440645
228	0xbec15a9c	-0.37764442
229	0xbced2b2d	-0.028951252
230	0x3bca38cd	0.006171322
231	0xbf26f43e	-0.65216434
232	0x3f7e5280	0.99344635
233	0xbf652572	-0.8951026
234	0x3e77abc6	0.2418662
235	0xbce00c08	-0.027349487
236	0xbf1c9ae1	-0.61173826
237	0xbb2232a1	-0.0024749415
238	0x3cc03ae4	0.023465581
239	0xbf0f7449	-0.5603681
240	0xbda18661	-0.07886959
241	0x3e8433f7	0.25820896
242	0xbe351b30	-0.17686152
243	0xbdea856e	-0.11451231
244	0xbe9b4e43	-0.30333146
245	0xbe1264d5	-0.14296277
246	0xbea3cfb9	-0.31994417
247	0xbea3bdc3	-0.31980714
248	0xbf8a8830	-1.0822811
249	0xbee2dc0a	-0.443085
250	0x3e6a11f7	0.22858416
251	0xbcd6eb0c	-0.026235126
252	0x3e3fea3c	0.18741697
253	0xbc6fb411	-0.0146303335
254	0x3cb320d9	0.021866249
255	0x3f949951	1.1609288

layers.0.bias f4 [50]
0	0xbef835e3	-0.48478612
1	0xbe03ab6c	-0.12858361
2	0xbd90b267	-0.070652775
3	0xbf0b9e34	-0.54538274
4	0xbe1bb761	-0.15206672
5	0xbed21d25	-0.4103786
6	0xbc89c4f6	-0.016817551
7	0xbf34fb90	-0.70696354
8	0xbeb4857f	-0.352581
9	0xbeedaec6	-0.46422404
10	0x3d076c6f	0.033062395
11	0xbd122795	-0.03568228
12	0xbe144ff1	-0.1448362
13	0xbe887409	-0.26651028
14	0xbe0f4949	-0.139928
15	0xbee886dc	-0.4541539
16	0xbe3c72c4	-0.18403155
17	0xbeb94368	-0.3618424
18	0x3ed0a935	0.40754095
19	0xbec450bd	-0.38342848
20	0xbf21ba74	-0.6317513
21	0x3df76af0	0.120809436
22	0xbf0b78b7	-0.5448107
23	0xbe3207dc	-0.1738581
24	0xbe01d71f	-0.12679718
25	0xbf9a43f9	-1.2051994
26	0x3e4c484f	0.19949459
27	0x3cfcac79	0.03084396
28	0xbe99d105	-0.30042282
29	0xbd956311	-0.07294286
30	0xbe96521e	-0.29359525
31	0x3d6e880b	0.05823521
32	0x3e21eb39	0.15812387
33	0xbf09d529	-0.5384088
34	0x3eb3ad9c	0.3509339
35	0xbe23517a	-0.1594905
36	0x3e1640a9	0.14673103
37	0xbf10f5ee	-0.5662526
38	0x3eb4c076	0.35303086
39	0xbe2d680d	-0.16934223
40	0x3ee96c17	0.45590279
41	0xbd9970ba	-0.07492204
42	0xbd60f33b	-0.054919463
43	0xbde19e28	-0.11016494
44	0x3e0abd75	0.13548835
45	0x3deb4f84	0.11489776
46	0xbe5ab46b	-0.21357886
47	0xbe726268	-0.23670352
48	0xbea7c93a	-0.3277071
49	0xbd8acd46	-0.06777434

layers.1.weight f4 [50, 50]
0	0x3dda63cc	0.10663566
1	0x3d17e39a	0.037082292
2	0x3d8bb1f0	0.06821048
3	0x3e6acef2	0.22930506
4	0xbf632ee5	-0.8874343
5	0xbdbbdd24	-0.091730386
6	0xbe641def	-0.22277044
7	0x3dfbe5d9	0.12299699
8	0xbe542635	-0.207177
9	0xbcfcded5	-0.030867973
10	0x3da5e398	0.08100051
11	0x3c8f511e	0.017494734
12	0xbf0369df	-0.5133342
13	0x3d8be66a	0.06831057
14	0xbdd21a76	-0.10258953
15	0xbe9181c3	-0.28419313
16	0x3c5bab57	0.01340755
17	0xbdfa782d	-0.12229953
18	0xbdbb761d	-0.09153388
19	0x3ea6d797	0.32586357
20	0x3e646f98	0.22308195
21	0xbe46a690	-0.19399476
22	0xbdae9df8	-0.08526224
23	0x3dc9d074	0.098542124
24	0x3e6f13a1	0.23347332
25	0xc0d18b44	-6.54825
26	0xbeb07ca5	-0.34470096
27	0xbd174388	-0.036929637
28	0xbffbd0c3	-1.9673084
29	0xc000ce93	-2.0126083
30	0x3da177fd	0.07884214
31	0x3dc4a8b1	0.09602488
32	0x3e419cec	0.18907517
33	0xbe91222f	-0.28346393
34	0x3e8d6143	0.27613267
35	0x3d67fd50	0.056638062
36	0x3e4c82da	0.19971791
37	0xbd46c378	-0.048526257
38	0x3da18ad5	0.07887808
39	0xbebfd489	-0.3746684
40	0xbee7d334	-0.45278323
41	0x3dbdf7e6	0.092757985
42	0xbdc7aca7	-0.09749728
43	0xbd150b9a	-0.036388017
44	0xbc414557	-0.011796317
45	0xbe1dcf9d	-0.1541123
46	0x3ded319e	0.11581729
47	0x3cb2f9e2	0.021847669
48	0x3d4d182b	0.050071876
49	0x3d347819	0.044059847
50	0xbe5c33b4	-0.21504098
51	0x3d97acee	0.074060306
52	0x3d775bd4	0.06039031
53	0xbd350c2d	-0.044201065
54	0x402d58cf	2.7085454
55	0xbdfc009a	-0.12304802
56	0xbe5ecaa7	-0.21756993
57	0xbd9e6844	-0.07734731
58	0x3d466efa	0.04844568
59	0xbe3735c9	-0.17891611
60	0x3d9849ba	0.07435937
61	0x3d805921	0.06267
62	0xbfc323e9	-1.5245334
63	0x3d7e4de6	0.06208601
64	0xbda3e5c8	-0.08002812
65	0xbe204ba1	-0.1565385
66	0x3df06114	0.11737266
67	0x3d1b421f	0.037904855
68	0x3f15c5c6	0.58504903
69	0xbe4787c0	-0.19485378
70	0xbe07576a	-0.1321694
71	0xbd98ce24	-0.07461193
72	0xbe02e148	-0.1278125
73	0xbd937fe6	-0.07202129
74	0xbd9511bd	-0.07278774
75	0xbf0ee13a	-0.5581242
76	0x3daa9356	0.08328883
77	0x3ed308d3	0.4121767
78	0xbe951096	-0.29114217
79	0xbf0e6a6a	-0.55631125
80	0x3d55da43	0.052210104
81	0x3e89dfc2	0.26928526
82	0x3c6d5239	0.014484935
83	0x3cec95ec	0.028880082
84	0xc02dd827	-2.716318
85	0xbe66276f	-0.2247598
86	0xc05d9f0f	-3.4628332
87	0x3e197e1d	0.14989515
88	0xc011eda1	-2.2801287
89	0xbc3fcb73	-0.011706221
90	0x3c81fbe3	0.01586718
91	0x3d044229	0.032289658
92	0xbe92d3b4	-0.28677142
93	0xbd244cc4	-0.040112272
94	0x3e377853	0.17916994
95	0xbde6e1e8	-0.11273557
96	0xbbc4e7b2	-0.0060090655
97	0x3e4c4d28	0.19951308
98	0xbd8e0642	-0.06934787
99	0x3e3e9608	0.1861192
100	0xbe465b12	-0.19370678
101	0xbd7a76b8	-0.061148375
102	0xbe26c8c2	-0.1628752
103	0xbd15f01a	-0.03660593
104	0xbdb3c589	-0.08777911
105	0xbea6f8d1	-0.32611707
106	0x3d2afffa	0.041748025
107	0xbe0171a4	-0.12641007
108	0xbe20a05c	-0.15686172
109	0xbdab9f90	-0.083800435
110	0xbbf7f137	-0.007566597
111	0xbe4e26e0	-0.20132017
112	0xbd0c9952	-0.034325905
113	0xbc3a0d7f	-0.011355757
114	0xbdffcdca	-0.12490423
115	0x3e4faea6	0.20281467
116	0x3d77103e	0.060318224
117	0x3d10d01b	0.035354715
118	0xbe12f3ec	-0.14350861
119	0xbdd1eeb6	-0.102506086
120	0x3ddc105e	0.10745309
121	0xbd3ecb2f	-0.04658049
122	0xbd94bcfe	-0.0726261
123	0xbd9ca950	-0.07649481
124	0xbe85a528	-0.26102567
125	0xbd3ceb03	-0.046122562
126	0x3df119a3	0.11772468
127	0xbea5fc73	-0.32419166
128	0xbe0a3ef5	-0.13500579
129	0x3dd5b387	0.10434633
130	0x3dac6664	0.08417967
131	0xbca0b07a	-0.0196154
132	0xbeba2644	-0.3635732
133	0x3b1cf15a	0.0023947568
134	0xbe0d95c6	-0.13826665
135	0xbe3c6f62	-0.18401864
136	0xbda2e27c	-0.07953355
137	0x3d630c7f	0.05543184
138	0xbd50dac9	-0.0509899
139	0xbdf56a00	-0.119831085
140	0xbe1ea655	-0.15493138
141	0xbcec30b7	-0.028831823
142	0xbdc692f6	-0.09695999
143	0xbecd1a71	-0.40059236
144	0xbe9f7f5a	-0.3115185
145	0x3d3bb999	0.045831297
146	0x3ce7cc63	0.028295701
147	0xbe6982ec	-0.22803849
148	0x3d90d037	0.07070964
149	0xbc7d967e	-0.015477775
150	0x3dd6b13a	0.10483022
151	0xbdd24bcf	-0.102683656
152	0xbd52a116	-0.051423155
153	0xbc0dd2d7	-0.008656225
154	0xbc04e455	-0.008111079
155	0x3e6298b7	0.22128569
156	0xbe63b01b	-0.22235148
157	0x3e769198	0.24078977
158	0xbddb03c8	-0.106940806
159	0x3dc9ac14	0.098472744
160	0xbd8c1c49	-0.068413325
161	0x3daa3562	0.08310963
162	0x3daddec8	0.08489758
163	0xbd966f94	-0.073455006
164	0xbdbcc59e	-0.0921738
165	0x3e88d8f4	0.26728022
166	0xbf28c959	-0.6593223
167	0x3dcd3939	0.1002068
168	0xc00c0823	-2.1879966
169	0xbbec3675	-0.00720864
170	0xbdb9c267	-0.090702824
171	0x3dee0d12	0.11623587
172	0x3e7fe106	0.24988183
173	0xbe501887	-0.20321856
174	0xbe0aa3e8	-0.13539088
175	0xc05c0f6b	-3.438441
176	0x3cd5df8a	0.026107568
177	0xc0091c82	-2.142365
178	0x3ccbd0af	0.024879782
179	0x3db32aa0	0.087483644
180	0x3dc19e14	0.09453979
181	0xbe15b4ba	-0.14619723
182	0x3d6212df	0.055193778
183	0xbf480078	-0.78125715
184	0x3dd08f62	0.10183598
185	0x3ed85270	0.42250395
186	0xbcb6d044	-0.022316106
187	0x3d464947	0.048409726
188	0x3e1a4da9	0.15068687
189	0xbdfde5f6	-0.12397377
190	0xbaedd96a	-0.001814646
191	0x3dc391a0	0.0954926
192	0xbf57e624	-0.8433554
193	0x3d90d511	0.07071889
194	0xbf068108	-0.52540636
195	0xbdd09deb	-0.101863705
196	0xbe79c36b	-0.24390952
197	0xbe8de3aa	-0.27712756
198	0x3d8630da	0.065522864
199	0x3dd5ad1a	0.10433407
200	0x3e906e5a	0.28209192
201	0x3cb3c681	0.02194524
202	0xbd9c9b3e	-0.076467976
203	0xbd86de98	-0.06585425
204	0xbece88e5	-0.40338817
205	0xbe279ba9	-0.16367973
206	0xbd255a91	-0.040369574
207	0x3eb7ae79	0.358753
208	0x3d0e7c15	0.034786303
209	0xbd9b1dbc	-0.07574031
210	0xbdd9ea6b	-0.10640415
211	0xbf419070	-0.7561102
212	0xbef21fd5	-0.4728991
213	0xbda1be40	-0.078976154
214	0xbe04e38a	-0.12977424
215	0x3da240db	0.079225264
216	0x3e21ed6b	0.15813224
217	0xbc011979	-0.007879608
218	0xbe71550c	-0.23567599
219	0x3e9b1eda	0.30296975
220	0x3d4ed3c6	0.05049493
221	0xbe35b43a	-0.17744532
222	0x3dff189a	0.12455864
223	0x3dd0e846	0.10200553
224	0x3e9497dc	0.2902211
225	0xc06a9760	-3.6654892
226	0xbe33c2de	-0.17554805
227	0x3c202bce	0.009776069
228	0xba2b6cd5	-0.00065393496
229	0xb9d7e3ca	-0.00041177712
230	0xbd906c91	-0.070519574
231	0xbe13bfd7	-0.1442865
232	0xbf5cdaf9	-0.86271626
233	0xbf84464f	-1.0333956
234	0xbf630f97	-0.88695663
235	0x3f271418	0.65265036
236	0xbf561116	-0.8361982
237	0xbcfc3360	-0.030786216
238	0xbd4a73a1	-0.04942668
239	0xbd560a5f	-0.052255984
240	0xba681986	-0.0008853901
241	0x3d64e02b	0.055877846
242	0xbf31457c	-0.6924665
243	0xbd8dc8a8	-0.06923038
244	0x3e18baf2	0.14915064
245	0xbebe392d	-0.37152997
246	0x3f1750f1	0.5910788
247	0x3e4046dc	0.1877703
248	0xbcef5ab2	-0.029218052
249	0xbd727297	-0.059191313
250	0xbfda6e56	-1.7064922
251	0x3cde0f50	0.027106911
252	0x3e0283ae	0.12745544
253	0xbe64aac1	-0.22330762
254	0x3fa17c51	1.2616063
255	0x3d309494	0.043110445

layers.1.bias f4 [50]
0	0x3e20fa12	0.15720394
1	0xbddd529e	-0.108067736
2	0xbe39d8a1	-0.18149044
3	0x3e266341	0.162488
4	0x3deae72d	0.114698745
5	0xbd1a9bcb	-0.037746232
6	0x3e223100	0.15839005
7	0x3d9e821b	0.077396594
8	0x3da5a68c	0.08088407
9	0xbce62a07	-0.028096212
10	0xbdfc1575	-0.1230878
11	0x3e4133dc	0.18867439
12	0xbd820c77	-0.06350034
13	0x3e703246	0.23456678
14	0xbe568b3b	-0.2095155
15	0xbe173630	-0.14766765
16	0xbe0a4554	-0.13503009
17	0xbd8b10b1	-0.06790293
18	0x3ca2c06b	0.019867143
19	0x3dd87fc4	0.10571244
20	0x3db80f03	0.08987238
21	0x3a348424	0.00068861456
22	0xbe92b4fa	-0.286537
23	0xbcc29a06	-0.023755085
24	0x3bcd5ef0	0.006267421
25	0x3e2d653e	0.16933152
26	0xbe2a0d9b	-0.16606753
27	0x3e1a021a	0.15039864
28	0x3cee5917	0.029095216
29	0xbe673479	-0.2257861
30	0x3d40b348	0.047045976
31	0xbd548993	-0.051889013
32	0x3db92042	0.09039356
33	0x3d225439	0.039631102
34	0xbe615e0a	-0.2200853
35	0x3d986d70	0.074427485
36	0x3c4113c5	0.011784499
37	0xbd9da73f	-0.07697915
38	0x3e58473e	0.21120927
39	0xbdbf8934	-0.09352341
40	0x3dac8cf1	0.0842532
41	0x3e00f0f7	0.12591921
42	0xbd6b3131	-0.05741996
43	0xbc691d7e	-0.014228223
44	0x3e404a32	0.18778303
45	0x3b3c89a1	0.0028768557
46	0xbeb740a5	-0.35791507
47	0xbd1fb063	-0.038986575
48	0x3df77fb1	0.12084902
49	0x3e1e92be	0.15485665

layers.2.weight f4 [20, 50]
0	0x3e0c9576	0.1372889
1	0x3d883e35	0.0665249
2	0xbbda0245	-0.0066531026
3	0xbe413364	-0.1886726
4	0xbe2e7432	-0.17036512
5	0xbfefe7e2	-1.874264
6	0xbd210a36	-0.03931638
7	0xbebd24bb	-0.36942086
8	0xbeb57fe7	-0.35449144
9	0xbd2da517	-0.04239377
10	0xbf45a8d4	-0.77210736
11	0xbeea6e32	-0.45787197
12	0x3ea06932	0.31330258
13	0xbcfefa83	-0.031125313
14	0x3dc0fb5c	0.09422943
15	0xbf3143db	-0.69244164
16	0xbbb7d751	-0.0056103845
17	0xbef5fe72	-0.4804569
18	0xbef2dc07	-0.47433493
19	0xbf04e7be	-0.5191611
20	0x3d22119d	0.03956758
21	0xbc847d4e	-0.016173031
22	0xbeaa9009	-0.33313015
23	0xbfe0d43a	-1.7564766
24	0xbfd06363	-1.628033
25	0x3e6b07a7	0.22952138
26	0xbdd79e67	-0.1052826
27	0x3e35e9c9	0.17764963
28	0x3e5c20da	0.21496907
29	0xbf8c8f55	-1.0981241
30	0xbe3b0cee	-0.18266651
31	0xbdbbcef3	-0.09170332
32	0xbdfc6951	-0.12324775
33	0xbf11668e	-0.5679711
34	0x3d5412f1	0.051775876
35	0xbe211b8d	-0.15733166
36	0xc02e246d	-2.7209733
37	0xbe38de6c	-0.18053597
38	0x3c8c260f	0.017107992
39	0x3d15fd5d	0.03661858
40	0xbedd64d2	-0.43240982
41	0xbeeee0f9	-0.46656016
42	0xbe4abc2d	-0.19798346
43	0xc037ce54	-2.8719683
44	0xbd29bc9a	-0.04143963
45	0xbf770939	-0.9649845
46	0x3ed0991f	0.40741822
47	0xbcc0d5d3	-0.02353946
48	0xbe8fea0e	-0.28108257
49	0xbe3268e6	-0.17422828
50	0xbe0ffe8a	-0.14061943
51	0xbe036e5b	-0.12835066
52	0xbbd5e15c	-0.006527109
53	0xbe006cc7	-0.12541495
54	0x3cb82e0e	0.022482898
55	0xbe0b9b61	-0.13633491
56	0xbe1d7b5f	-0.15379094
57	0x3c7c13a8	0.015385546
58	0xbe408589	-0.1880094
59	0xbdbf516f	-0.09341704
60	0x3d74fa9b	0.05980931
61	0xbdbec4e2	-0.09314896
62	0xbd9415b0	-0.07230699
63	0x3da64a58	0.08119649
64	0xbdc5478c	-0.09632787
65	0xbd68849d	-0.056767095
66	0xbcf5ad4c	-0.029989861
67	0x3c474b2b	0.0121639175
68	0xbd9a1a7c	-0.07524583
69	0xbdcf5180	-0.10122967
70	0xbdb2f367	-0.087378316
71	0x3d565eca	0.05233649
72	0xbde32988	-0.11091906
73	0xbe1b5668	-0.1516968
74	0x3d2a0e31	0.04151744
75	0x3cb8c7db	0.022556236
76	0xbdcb4f07	-0.09927183
77	0xbe0a159a	-0.13484803
78	0xbcf1b779	-0.029506432
79	0xbd4bf8e9	-0.049797926
80	0xbdc037db	-0.093856536
81	0x3b860ed6	0.004091124
82	0x3d02963d	0.03188156
83	0xbb9b34ea	-0.0047365325
84	0x3c1968a0	0.009363323
85	0xbd739f6c	-0.05947821
86	0x3cd308a5	0.025760958
87	0xbd80459a	-0.062632754
88	0xbdcce2ec	-0.100042194
89	0xbd4924d3	-0.049107384
90	0xbe01a309	-0.12659849
91	0xbda2a768	-0.079420865
92	0x3de02370	0.10944259
93	0xbe10fd79	-0.14159192
94	0x3d0340f2	0.03204436
95	0xbe2c5a90	-0.16831422
96	0xbe339767	-0.17538224
97	0xbe1e2ea5	-0.15447481
98	0xbcef0aed	-0.029180015
99	0xbd07f3c3	-0.033191454
100	0x3c726a54	0.014795858
101	0x3e8bb585	0.27286926
102	0x3e2ddef9	0.16979589
103	0xbe8f0b22	-0.2793818
104	0xbe2f0e7c	-0.17095369
105	0xbff6c2b9	-1.9278175
106	0xbdc0122c	-0.09378466
107	0x3deea54d	0.11652622
108	0xc003afea	-2.057612
109	0xbe39b49a	-0.181353
110	0xbf0aa330	-0.54155254
111	0xbed0f9b7	-0.40815517
112	0xbe3d10ef	-0.18463491
113	0xbe53ae9e	-0.2067208
114	0xbd10b99e	-0.03533327
115	0xbe37213b	-0.1788377
116	0xbde98996	-0.114031956
117	0xbe58419c	-0.21118778
118	0xbe78d344	-0.24299341
119	0xbed595b2	-0.4171577
120	0xbf2e224d	-0.6802109
121	0xbe8906fa	-0.26763135
122	0x3db77944	0.089586765
123	0xbfdc902e	-1.72315
124	0xbfaaa685	-1.3332068
125	0x3e42ab7d	0.1901073
126	0xbd8f08ea	-0.06984122
127	0xbc436f3a	-0.011928374
128	0xbf60a24c	-0.87747645
129	0xbe5f1dde	-0.21788737
130	0x3de580c5	0.112062015
131	0x3d5c334b	0.053759854
132	0xbe021317	-0.12702595
133	0xbf052188	-0.5200429
134	0xbcf9253a	-0.030413259
135	0xbff991b7	-1.9497594
136	0xbfc708e6	-1.554959
137	0xbe9b1b39	-0.30294207
138	0x3ea4ae82	0.3216439
139	0x3e9ae42f	0.30252215
140	0xbea42c57	-0.3206508
141	0xbf141fb5	-0.5786088
142	0xbe85cfdd	-0.2613515
143	0xc021dd47	-2.5291307
144	0xbf4206f7	-0.7579188
145	0xbfd39305	-1.6529242
146	0x3f222937	0.6334414
147	0xbf98d719	-1.1940643
148	0x3bf1e566	0.0073820828
149	0x3e9d29d1	0.30695966
150	0x3e11b866	0.14230499
151	0xbed6a2bb	-0.41921028
152	0x3e4f6b45	0.20255764
153	0xbe8b4ab3	-0.27205428
154	0xbf4e9e85	-0.8071063
155	0xc0252daa	-2.580912
156	0xbd59a1c2	-0.05313278
157	0xbe8eb89d	-0.27875224
158	0xc03fdc18	-2.9978085
159	0xbf0bea3e	-0.546543
160	0xbf312345	-0.6919444
161	0xbe4fb1a3	-0.20282607
162	0x3de87d81	0.11352063
163	0x3dbf76f2	0.09348859
164	0x3cf6a742	0.030109052
165	0xbef7831f	-0.48342225
166	0xbdd53e23	-0.10412242
167	0xbe024cb3	-0.12724571
168	0xbd3bd9d8	-0.04586205
169	0xbfb27ada	-1.3943741
170	0xbea7f773	-0.32805976
171	0xbec2bb0b	-0.38033327
172	0xbdd2a7c5	-0.10285906
173	0xc035eb1c	-2.842475
174	0xc0169560	-2.3528671
175	0x3e1fc55b	0.15602629
176	0x3d97e6bd	0.07417057
177	0xbe143416	-0.14472994
178	0xbd81e174	-0.0634183
179	0xbf92878f	-1.1447619
180	0x3e8fc698	0.28081203
181	0xbf6a355a	-0.9148766
182	0x3e32c771	0.17458893
183	0xbd7d2782	-0.061805256
184	0xbd5c3eb4	-0.053770736
185	0xc0394556	-2.894857
186	0xc000543d	-2.0051415
187	0xbe4836e4	-0.19552189
188	0x3e852f4b	0.26012644
189	0xbea1f926	-0.31635398
190	0x3d432e34	0.047651485
191	0xbfaf5559	-1.3697921
192	0xbeb55ad3	-0.35420856
193	0xc024ead6	-2.5768332
194	0xbfffaaff	-1.9974059
195	0xc037cc6d	-2.8718522
196	0x3f1e8543	0.6192209
197	0xbfc29ba6	-1.520375
198	0x3ea2646e	0.31717247
199	0x3ef7ed5c	0.48423278
200	0x3ec16499	0.37772062
201	0x3c1816b6	0.009282758
202	0xbd4aa166	-0.049470328
203	0x3cc0869e	0.02350169
204	0xbdb0b83e	-0.086288914
205	0xc04dcadf	-3.2155073
206	0x3d46a1e8	0.04849425
207	0xbd557d7f	-0.052121636
208	0xc0823eb3	-4.0701537
209	0xbe8ae70c	-0.271294
210	0xbd1ba74b	-0.03800134
211	0xbc62b003	-0.01383591
212	0x3c6947df	0.014238327
213	0xbf1cec42	-0.61298
214	0xbdd4e3b3	-0.10394993
215	0x3ec0cc44	0.37655842
216	0x3dae4797	0.085097484
217	0xbd0cc268	-0.034365088
218	0xbd84a1e9	-0.064761944
219	0xbdd8afa5	-0.105803765
220	0xbbf02609	-0.007328753
221	0x3a4c932c	0.0007803913
222	0x3c9a8cfa	0.018866051
223	0xc08ec500	-4.461548
224	0xc0884437	-4.258327
225	0x3d692185	0.056916732
226	0x3d6fde3d	0.058561552
227	0x3e2fa00b	0.17150895
228	0xbc792bdf	-0.015208214
229	0xbfb3ee6f	-1.4057139
230	0xbc8adc76	-0.016950827
231	0xbb4d0e4d	-0.0031289042
232	0x3e8ff523	0.28116712
233	0xbc9a4f32	-0.018836591
234	0xbd6d9acf	-0.058008965
235	0xc061d7b5	-3.5287907
236	0xc04ee2fc	-3.232604
237	0xbcf7587e	-0.030193564
238	0xbe234ce3	-0.15947299
239	0x3ecc0851	0.39850095
240	0xbc85b96f	-0.016323773
241	0xbe41dbcd	-0.18931504
242	0x3d89f637	0.06736415
243	0xc08d346e	-4.41265
244	0x3ce51f4d	0.027969027
245	0xc08dc2c7	-4.4300265
246	0x3f4be00c	0.79638743
247	0xbe9cf0b1	-0.30652383
248	0x3c33c9f1	0.01097344
249	0xbd8af24f	-0.06784498
250	0xbe02538c	-0.12727183
251	0xbcf4f3a5	-0.029901335
252	0xbd9519d5	-0.07280318
253	0xbbc0b5bc	-0.0058810394
254	0xbe2b187d	-0.1670856
255	0xbee8a5b8	-0.45438933

layers.2.bias f4 [20]
0	0xbde50d08	-0.11184126
1	0xbe699a3c	-0.22812742
2	0xbe78c070	-0.24292159
3	0x3d36f9a9	0.04467169
4	0x3ee1980e	0.4406132
5	0x3f260fde	0.6486796
6	0xbe75483d	-0.23953338
7	0xbe4d183a	-0.20028773
8	0xbf5dc024	-0.8662131
9	0xbf543b4d	-0.82902986
10	0x3ec80be5	0.39071575
11	0x3cf29d3e	0.029615995
12	0x3ecd2085	0.40063873
13	0x3e16f606	0.14742288
14	0x3f02e0af	0.5112409
15	0x3f0189e0	0.50601006
16	0x3f3a4d74	0.72774434
17	0x3c82c0a6	0.015961003
18	0xc0123445	-2.2844403
19	0x3f078a98	0.5294585

layers.3.weight f4 [1, 20]
0	0xbd6a3374	-0.057177976
1	0x3d8a0e14	0.067409664
2	0xbcb71983	-0.022351032
3	0x3cc6c7a8	0.024265125
4	0x3d5fc3d3	0.054630112
5	0x3d919ad6	0.07109611
6	0x3c6e5f9b	0.014549161
7	0xbddb8115	-0.1071798
8	0x3d6a39da	0.057184078
9	0x3d799777	0.060935464
10	0xbe57adc9	-0.21062388
11	0x3cc61b48	0.02418293
12	0xbdfe69d4	-0.12422529
13	0xbcb3232e	-0.02186736
14	0xbe0a7c26	-0.13523921
15	0x3ddb80bc	0.107179135
16	0xbe095ff0	-0.13415504
17	0xbd8675c6	-0.06565432
18	0xbe164177	-0.1467341
19	0xbe0a64dc	-0.13515037
